cat.model (torch, 479416 bytes, 2 tensors)

W f4 [1718, 64]
000000 60 8e a6 ba f6 3f 0f 3c dc bf 0e bc ef c1 cd 3a
       -0.0012707226 0.008743277 -0.008712735 0.0015698056
000010 af 15 09 bb a4 53 0a bc 32 e6 3c bc 3b 71 fe bb
       -0.0020917465 -0.008442793 -0.011529492 -0.007764963
000020 b9 30 97 3b 99 4c bc bb 04 26 52 3c 61 f1 6c bb
       0.0046139625 -0.005746436 0.012826446 -0.0036154615
000030 57 4c 58 bc 9c de a5 3b 43 a8 77 bb 97 f7 85 3c
       -0.013201795 0.0050619375 -0.00377895 0.016353412
000040 0e 30 a2 bb c5 6c 35 3c ea 41 bb bb a9 7d af bb
       -0.004949576 0.011073296 -0.0057146447 -0.005355556
000050 b3 a1 cb bc ac 69 7b bc fc 6d d5 bb c6 fe 0f 3b
       -0.024857378 -0.015345018 -0.0065133553 0.0021971925
000060 2f fb 0e 3c b4 3f 7b 3c 91 35 0f 3c 93 7a 18 3c
       0.008726879 0.015335012 0.008740799 0.009306568
000070 fc b4 cc ba 19 85 af b9 60 41 4a 3c ee e3 a6 3b
       -0.0015617902 -0.00033477767 0.012344688 0.0050930893
000080 32 4d fc bb b0 da 74 bc 9b 08 a2 38 79 dc d4 bb
       -0.007699632 -0.014944717 7.726365e-05 -0.006496009
000090 dd 8d 2c bc e7 5b 89 bb 17 3c 3a ba 9c 21 76 3c
       -0.01053187 -0.004191864 -0.0007104291 0.015022662
0000a0 a5 64 6b bc 7b 68 0f bc 10 a4 58 b9 fd 86 04 bb
       -0.014367257 -0.008752937 -0.00020660483 -0.002022206
0000b0 dc 2d 05 3c 87 de ba 3c 72 77 41 3b 59 77 5f 3c
       0.0081286095 0.022811187 0.0029520658 0.013639295
0000c0 0b 5b b3 3a a9 4b 8b b9 98 3c 40 3b 6d 9e 45 bc
       0.0013683749 -0.00026568517 0.0029332992 -0.012061697
0000d0 58 eb b9 ba 1b 83 65 3c a6 f5 a0 3b 3b 4c 42 3b
       -0.0014184518 0.014008309 0.004912096 0.0029647488
0000e0 55 b0 90 3c f9 2f 3e bc 9d c8 fc 3a 78 45 6d bc
       0.017662207 -0.011608117 0.0019285862 -0.014481895
0000f0 1f 92 07 bc 00 87 00 3c 44 ae 49 bb db 42 03 3c
       -0.008274584 0.0078446865 -0.0030774036 0.008011545
000100 a9 9f c4 bb 61 ee 95 bc 4e 1b 8e 3b 27 02 04 bc
       -0.0060004783 -0.018302144 0.004336751 -0.008057154
000110 5a f5 ec bb 67 1d 0a b9 73 c1 58 3c b1 91 c9 3d
       -0.0072313966 -0.00013171659 0.013229716 0.098422416
000120 72 28 9f 39 3a 4b 80 3c bc 1b 2e bd 8e 5a 52 3c
       0.00030356977 0.01566087 -0.04250692 0.012838973
000130 8f 9b 05 3c dd e0 e0 3c 1c d4 f8 ba 4f 6b f4 3b
       0.008154764 0.027450973 -0.0018984112 0.0074590812
000140 a3 36 e4 3b e8 6a 6c bb 61 bd 40 3a f3 54 cf bc
       0.006964521 -0.0036074463 0.00073524384 -0.025309062
000150 18 22 bc bb 10 83 8d 3b 9a 3a 7a 3c ce f3 66 3c
       -0.005741369 0.0043186024 0.015272761 0.0140962135
000160 53 1d 8e b9 d3 bb 3a 3c d5 52 d6 3b 3c 53 6e bb
       -0.000271062 0.01139732 0.006540636 -0.003636553
000170 c4 90 19 bd a7 97 1e 3c 2f 1e 84 3c d0 0b fa bb
       -0.037491575 0.009679711 0.016127674 -0.0076308027
000180 2b 96 84 bc 62 66 21 3c 72 44 4b bc 8a 04 f3 3a
       -0.016184887 0.00985107 -0.012406455 0.0018540781
000190 cd a1 00 3c 0e a1 95 3b eb a9 72 3b 95 a9 5f 3c
       0.007851076 0.0045663184 0.0037027549 0.013651271
0001a0 84 bf 23 3c 71 07 99 3d 45 03 cf bb 4f 23 8a 3c
       0.009994391 0.074721225 -0.0063175284 0.01686254
0001b0 57 f9 16 3b 9a 04 f4 bb 24 0f 3c bc e4 74 0d bc
       0.0023036802 -0.0074468376 -0.011478219 -0.008633826
0001c0 c5 1d cb 3b a9 83 5a bc 68 ec ee bb b8 81 ae 3c
       0.006198617 -0.013337054 -0.0072913654 0.02130209
0001d0 4c 64 d9 39 3f f1 08 3c ce f0 56 bc 52 85 e0 bb
       0.00041464192 0.008358299 -0.013118936 -0.0068518305
0001e0 7d 76 e7 bc 00 56 f7 bb 95 ef c5 bb 94 66 b4 bc
       -0.028254742 -0.007548094 -0.0060405233 -0.02202157
0001f0 72 0e c6 3b fc c4 6d bc 94 fd b7 3b 89 5d 9e 3a
       0.0060442025 -0.014512297 0.0056149457 0.0012082319
000200 af 9f 01 3b 57 5e 92 bc 8d d0 b8 3b 76 87 47 bc
       0.0019779017 -0.01786725 0.0056400956 -0.0121782925
000210 f2 43 03 ba c0 dc b0 bb d5 30 0c 3c 17 75 cd 3d
       -0.0005007378 -0.005397409 0.008556564 0.10032099
000220 da a4 98 bb 17 23 0d 3c 8e c0 36 bd 32 49 ac 3c
       -0.0046583237 0.008614323 -0.04461723 0.021030996
000230 ad 17 14 3c 65 f3 ab 3c 89 8f cc bb 27 29 54 3c
       0.009038848 0.020990083 -0.0062426967 0.012949265
000240 3d bb 9b 3b 4d 6b a1 bb 77 0c 3e bb ec 9d 9a bc
       0.004752545 -0.0049261213 -0.002899913 -0.018874131
000250 f4 7b c0 bb 52 65 07 3b ff c2 6c 3c cc 8d 61 3c
       -0.0058741514 0.0020659757 0.014450788 0.013766717
000260 45 0a 26 3b c1 a3 89 3c 3b 72 3f 3c 07 87 91 3b
       0.002533571 0.016801717 0.0116849495 0.0044411453
000270 c8 8a 2c bd 69 af 8e 3c 8b 3b 96 3c dc e8 dd bb
       -0.04212454 0.017417626 0.01833894 -0.0067721438
000280 97 6c c9 bb a5 69 39 3c 09 c9 b8 bb 29 38 67 3c
       -0.006146978 0.0113166915 -0.0056391996 0.014112511
000290 bf 09 0e 3c 84 56 e5 ba 9d c3 b8 3b 42 8a 51 3c
       0.008669316 -0.0017497097 0.0056385533 0.012789311
0002a0 b8 3a 0c 3c 2d 3f 97 3d 9d 79 2c bc 59 64 22 3c
       0.0085589215 0.07385097 -0.010527042 0.00991162
0002b0 8e 16 98 ba a5 b6 44 bc 4f 36 77 bc 20 39 4f 39
       -0.0011603402 -0.0120064365 -0.015088632 0.00019762339
0002c0 c4 0f 15 3c 70 71 4c bc 26 a5 21 bc 3b b5 b9 3c
       0.009097997 -0.0124782175 -0.009866035 0.022669425
0002d0 79 f6 d3 3b b2 fa 00 3c d0 27 8f bc 53 1e 0b bc
       0.006468591 0.00787227 -0.017475039 -0.008491117
0002e0 28 b5 00 bd 4d 51 f0 bb cf f7 ca 3b 97 70 ab bc
       -0.031422764 -0.0073339106 0.006194092 -0.02092771
0002f0 81 13 b1 3a 42 0e a4 bc 63 eb 35 3c 03 c1 ab 3b
       0.0013509841 -0.02002633 0.011103484 0.0052415146
000300 d6 65 35 bc 8b 7c ac ba 82 0d 19 3c 0d ea 34 bb
       -0.011071643 -0.0013159675 0.009341599 -0.0027605325
000310 60 6c 68 bb c1 21 4b bc 8a c1 de b9 2e fa 8a 3d
       -0.0035464987 -0.012398184 -0.00042487337 0.06785999
000320 3f bd e6 3b 96 b7 f6 3b 27 69 44 bd b5 bd b4 ba
       0.007041603 0.0075292094 -0.047951844 -0.0013789447
000330 5e ad d6 3a f4 4a a7 3c 41 4b e8 bb 2b 1d 32 bb
       0.0016378572 0.020421483 -0.007089049 -0.002717803
000340 59 12 3b 3c 87 7e c7 bb 0c c9 42 3b a5 f0 b7 bc
       0.011417949 -0.0060880813 0.0029721884 -0.022453615
000350 2b 32 2b bc bc 3e 8f 3c 78 30 9a 3c 48 ac 0f 3c
       -0.010448973 0.017485969 0.01882194 0.008769102
000360 34 5e 23 bb ae 93 d3 3b 33 46 0d bc 18 6d c9 3b
       -0.0024927976 0.006456814 -0.008622694 0.006147038
000370 1d ac 25 bd af 08 cd 3a 0b 8a 98 3c 0a 93 8e bc
       -0.040447343 0.0015642847 0.018620512 -0.017404098
000380 41 3d a9 bb b1 2b dc 3c 61 01 a4 bb 2e 12 26 3b
       -0.0051647727 0.026876302 -0.005005047 0.0025340426
000390 12 f0 46 3c 87 3a 6c bc d5 0e ef 3b f8 15 3f 3c
       0.012142198 -0.014418251 0.0072954693 0.011662953
0003a0 f3 03 a2 3a 46 84 a0 3d 2f 1c c3 3b a7 ec d9 3b
       0.0012360796 0.07837729 0.0059542875 0.0066505256
0003b0 47 1a af bb 5c 39 c6 3a 5a 04 e5 ba 97 a8 5c ba
       -0.0053437087 0.0015123296 -0.001747261 -0.0008417456
0003c0 16 4f 61 bb a1 b0 f6 bb e5 ef 42 bc 7b 2a ba 3c
       -0.0034379414 -0.00752838 -0.011898016 0.022725334
0003d0 85 92 68 bc 89 b6 8f 3b 5c 31 04 bc d7 0b 64 bc
       -0.014195089 0.0043857736 -0.008068409 -0.013918838
0003e0 dd dc e3 bc 05 3e 19 bc db 31 6d bb bc 74 a3 bc
       -0.027815277 -0.0093531655 -0.0036193046 -0.019953124
0003f0 43 9a 2d 3c e4 ac 29 3c 92 ee e2 3a 56 a9 89 bb
       0.010595861 0.010356162 0.0017313531 -0.0042010946

W f4 [3, 64]
000000 66 31 5a bb 65 fc 86 bc d1 fe 8a 3c 74 de 3a bc
       -0.0033293604 -0.016477773 0.016967209 -0.011405576
000010 83 f8 07 bc 14 8c c5 bc 8d 36 c5 3b 77 7a 4d 3c
       -0.008298996 -0.024114646 0.006018466 0.012541405
000020 d4 20 10 3c 7b f7 2b 3c e1 67 4a bb 85 e9 66 3b
       0.008796889 0.010496016 -0.003088467 0.0035234403
000030 d0 c9 d5 3b 2f ac 08 3d 5b c2 73 3c ee 9c b4 3b
       0.006524302 0.033367332 0.014877881 0.0055118715
000040 39 d9 6c 3c 6f a7 8b bb 71 35 53 3c 79 66 2a bc
       0.014456087 -0.004261903 0.012891159 -0.010400408
000050 25 87 97 bc f4 38 dc 3a 3d ca 13 3d e8 f4 d9 3c
       -0.01849706 0.0016801641 0.03608154 0.026606038
000060 73 9d 8d 3c 5b 47 e5 3c db b0 5e bb 54 58 28 bb
       0.017286992 0.027988127 -0.0033979926 -0.0025687413
000070 10 5a c4 bb e9 aa 6d 3c 3c 0e 0a 3d 14 8e e6 bc
       -0.0059921816 0.01450608 0.03370498 -0.02814392
000080 89 5c 5e 3b 5d 75 21 3c 8a e0 f0 bc 32 9c 35 3c
       0.0033929667 0.009854642 -0.029403944 0.011084603
000090 50 22 52 3c 81 a4 20 bc e0 01 0e 3b 06 af 9a 3b
       0.012825564 -0.009804846 0.0021668598 0.0047205715
0000a0 de 22 55 3c 86 c0 0a 3d fb 7b bc bb 84 7f ae 3c
       0.013008801 0.03387501 -0.0057520843 0.021301039
0000b0 06 0c 80 bb eb 1c 07 3c 56 05 a2 bc da 93 a4 39
       -0.0039076833 0.008246641 -0.019777935 0.00031390676
0000c0 27 0f 44 bc 1a 14 18 bc b9 ba 93 bc e9 a3 c5 3c
       -0.011966503 -0.009282136 -0.018033372 0.02412601
0000d0 95 6d 9e 3b 99 23 08 3d 50 df 80 bc fd c4 9e bb
       0.0048348405 0.033237074 -0.015731484 -0.00484526
0000e0 54 be 3c bb 04 71 84 bc de 92 7e 3c 37 65 0e bc
       -0.0028799968 -0.016167171 0.015537946 -0.008691124
0000f0 79 48 8a 3c d9 81 41 bc 2f cf 11 3c 2f 27 31 bb
       0.01688026 -0.011810743 0.008899494 -0.0027031412
000100 17 2b 1e bc cb 9a 8b bc cc b3 48 ba eb 8e 69 bc
       -0.009653828 -0.017041584 -0.00076561864 -0.014255266
000110 f7 20 96 bc ab 59 59 bb 65 1a ca 3c 49 51 87 3b
       -0.018326266 -0.0033165019 0.024670789 0.004129563
000120 6c 60 f7 3c ea 9c b2 3c 5d 4e 3e 3b c3 3e 72 3c
       0.030197345 0.021803338 0.0029038407 0.014785471
000130 06 66 4e 3c a5 18 3b 3d 7b 52 fd 3b f7 ff 13 3c
       0.0125975665 0.0456778 0.0077307797 0.009033195
000140 2f 94 7f 3c c0 5a 82 bb 34 d2 45 3b 68 38 56 3c
       0.015599295 -0.0039781034 0.0030185105 0.013074972
000150 5b b7 16 bb 14 89 0e bc ed 01 e8 3c 8a ca 73 3c
       -0.0022997472 -0.008699674 0.02832123 0.014879832
000160 7c 46 3a bc 9b 34 c4 3c 96 98 ac 3b 47 26 e9 3a
       -0.011369344 0.023950865 0.005267213 0.0017787897
000170 ca 4a 7f bb f1 da a1 3c 1c 85 f4 3c 04 3c 8f bc
       -0.003895449 0.01975772 0.029848628 -0.017484672
000180 89 ed 2b bc 03 83 ea 3b ef f8 c4 bc a7 6a f8 3b
       -0.0104936445 0.007156731 -0.024044482 0.0075810733
000190 2e d9 71 3c e5 c7 a4 bb ca e1 74 3b e1 a5 46 3c
       0.014761252 -0.005028712 0.0037366026 0.01212451
0001a0 f9 ae ed 3c c3 ab ca 3c 10 d9 b3 bb 4f f8 70 3c
       0.029014098 0.024740105 -0.0054885224 0.014707639
0001b0 7d b8 12 3b 8c 59 d1 bb c0 38 44 bc d6 04 0e bb
       0.0022387796 -0.0063888486 -0.011976421 -0.0021670363
0001c0 67 c0 1f bc 9b a8 80 bc 2c 93 3b bc 18 5b e6 3c
       -0.009750462 -0.015705397 -0.011448663 0.028119609
0001d0 3c 36 58 3c 53 38 86 3c bc 13 e5 bc 3f 03 d4 bc
       0.013196524 0.01638428 -0.027963512 -0.025880454
0001e0 70 bf c0 3b 82 2d 4c bc 19 8b a9 bb 73 52 93 bc
       0.005882196 -0.012462022 -0.0051740524 -0.01798365
0001f0 5d b3 a1 3c c8 19 24 bd 56 69 4d 3c d6 40 b1 3a
       0.019738847 -0.04006365 0.012537321 0.0013523351
000200 76 c0 dc bb 46 3c 9e bc 97 1d c4 3c 74 3e 62 bc
       -0.0067368103 -0.01931585 0.02393989 -0.013808835
000210 17 d4 c6 3b 66 cb f0 bc d1 e1 f5 3b 1c 2a b8 3b
       0.0060677635 -0.029393863 0.007503726 0.005620254
000220 6a 45 de bb 21 44 5b 3c 33 09 d4 3a c4 25 5d 3b
       -0.006783177 0.013382942 0.0016177058 0.0033744434
000230 78 1b f0 3b 09 0f 12 3d 3a b9 31 ba 25 ee 2c 39
       0.0073274933 0.03565887 -0.0006779615 0.00016491914
000240 60 1d 7e 3c 8f 7a 09 bb 95 bc 5d 3c 2c 54 c6 bb
       0.015509933 -0.0020977592 0.013533731 -0.0060525145
000250 f5 4e f3 bb b1 38 ff bb 3a 89 2a 3d c3 74 fb 3c
       -0.007425184 -0.0077887406 0.041634776 0.030695325
000260 15 59 a1 3c 09 43 de 3c 68 22 fa 39 de 59 97 bb
       0.019695798 0.027131574 0.0004770935 -0.0046188673
000270 54 ba 10 bb d2 c1 47 3c f1 55 09 3d 37 95 c0 bc
       -0.0022083716 0.012192206 0.033529226 -0.023508651
000280 60 01 88 bb fe 78 04 3c 8c db ce bc 1c 44 24 3c
       -0.0041505545 0.008085487 -0.025251172 0.010026004
000290 7c 44 7e 3c 7e 3a 1d bc 98 cc 67 ba 6f ab 00 3c
       0.015519258 -0.009596465 -0.00088424375 0.007853373
0002a0 e2 5f 1c 3d e9 d1 f0 3c 4a 2f 1c 3a a1 8c be 3c
       0.03817738 0.029396968 0.00059579744 0.023260416
0002b0 56 3a 1a bc a7 bc 85 3b a4 7b 86 bc 5c 26 af ba
       -0.009413322 0.004081327 -0.016416378 -0.0013362872
0002c0 94 14 c4 3c 5e 83 64 bc 43 d2 99 bc 1e 32 b9 3c
       0.023935594 -0.013947336 -0.018777018 0.022606906
0002d0 4c 1c 98 3c 31 f4 0e 3d 0f 38 5e bc 02 16 c6 bc
       0.01856818 0.034900848 -0.01356317 -0.024180416
0002e0 aa 36 2d 3b 32 27 b6 bc a6 36 d8 3b 15 9e ed bb
       0.0026430287 -0.022235487 0.0065983115 -0.007251511
0002f0 c5 99 a1 3c 43 06 1e bc 4d d1 56 3b 74 95 fd ba
       0.019726643 -0.009645048 0.0032778562 -0.0019346909
